…
only one dense unit without activation function as the model is for the Regression
task. The architecture includes four hidden layers.
num_features = len( xtrain[1] )
from keras.models import Sequential
from keras.layers import Dense
reg_model = Sequential()
reg_model.add(Dense(100, input_dim= num_features,
activation=’relu’))
reg_model.add(Dense(80, activation=’relu’))
reg_model.add(Dense(50, activation=’relu’))
reg_model.add(Dense(20, activation=’relu’))
reg_model.add(Dense(10, activation=’relu’))
reg_model.add(Dense(1))
print(’Model summary:\n’)
.
reg_model.summary()
Output
Model summary:
Model: "sequential"
Layer (type) Output shape Param #
dense (Dense) (None, 100) 1400
dense_1 (Dense) (None, 80) 8080
dense_2 (Dense) (None, 50) 4050
dense_3 (Dense) (None, 20) 1020
dense_4 (Dense) (None, 10) 210
dense_5 (Dense) (None, 1) 11
Total params: 14,771
Trainable params: 14,771
Non-trainable params: 0


================================================================================
PAGE 354
================================================================================

14.7 CaseStudies 345
• Compile and fit the model.
.
Compile the model by specifying the following parameters:
adam optimizer,
mse for loss and metrics
Loss function is used to optimize the model, and metrics is to assess the model
…
================================================================================
PAGE 361
================================================================================

352 14 PythonforDeepLearning
model.add(Conv2D(64,3, activation =’relu’))
model.add(Conv2D(64,3, activation =’relu’))
model.add(MaxPooling2D(pool_size=(2,2)))
model.add(Dropout(0.2))
model.add(Flatten())
model.add(Dense(256,activation =’relu’))
model.add(Dense(128,activation =’relu’))
model.add(Dense(64,activation =’relu’))
model.add(Dense(5,activation =’softmax’))
model.summary()
Output
Model: "sequential_11"
Layer (type) Output shape Param #
conv2d_44 (Conv2D) (None, 176, 176, 32) 2432
conv2d_45 (Conv2D) (None, 172, 172, 32) 25632
max_pooling2d_22
(MaxPooling2D) (None, 86, 86, 32) 0
dropout_29 (Dropout) (None, 86, 86, 32) 0
conv2d_46 (Conv2D) (None, 84, 84, 64) 18496
conv2d_47 (Conv2D) (None, 82, 82, 64) 36928
max_pooling2d_23
(MaxPooling2D) (None, 41, 41, 64) 0
dropout_30 (Dropout) (None, 41, 41, 64) 0
flatten_11 (Flatten) (None, 107584) 0
dense_37 (Dense) (None, 256) 27541760
dense_38 (Dense) (None, 128) 32896
dense_39 (Dense) (None, 64) 8256
dense_40 (Dense) (None, 5) 325
Total params: 27,666,725
Trainable params: 27,666,725
Non-trainable params: 0


================================================================================
PAGE 362
================================================================================

14.7 CaseStudies 353
• Compile and Fit the Model
.
rmsprop as the optimizer, accuracy as the performance metric. Loss function is
categorical_crossentropy as it is multi-class classification task. The fit() function
…
